…
   envs_dirs /path/to/my/project/on/fred/.conda/envs $ conda config --env
   --prepend pkgs_dirs /path/to/my/project/on/fred/.conda/pkgs ``` - To hide
   this message in the future, load the module with -q ``` $ module -q load
   conda ```

-------------------------------------------------------------------------------

==========================================================================================
Layer (type:depth-idx)                   Output Shape              Param #
==========================================================================================
ConvAE                                   [8, 2, 1048576]           --
├─Conv1d: 1-1                            [8, 64, 131072]           8,384
├─Conv1d: 1-2                            [8, 64, 16384]            266,304
├─ConvTranspose1d: 1-3                   [8, 64, 131072]           266,304
├─ConvTranspose1d: 1-4                   [8, 2, 1048576]           8,322
==========================================================================================
Total params: 549,314
Trainable params: 549,314
Non-trainable params: 0
Total mult-adds (G): 392.75
==========================================================================================
Input size (MB): 67.11
Forward/backward pass size (MB): 1275.07
Params size (MB): 2.20
Estimated Total Size (MB): 1344.37
…
