…
2024-04-30 03:41:24.124166: I tensorflow/core/common_runtime/gpu/gpu_device.cc:1886] Created device /job:localhost/replica:0/task:0/device:GPU:0 with 38298 MB memory:  -> device: 0, name: NVIDIA A100-PCIE-40GB, pci bus id: 0000:83:00.0, compute capability: 8.0
1 Physical GPUs, 1 Logical GPUs
#################################
####DATA GENERATOR PARAMETERS####
#Dataset size:  11011
#Batch size:  8
#Time in years: 2.658143162020893
#n_channels:  2
#dt:  10
#Length of timeseries: 8388608
Noise background:  False
#################################
Model: "sequential"
_________________________________________________________________
 Layer (type)                Output Shape              Param #   
=================================================================
 conv1d (Conv1D)             (None, 1048576, 64)       8256      
                                                                 
 leaky_re_lu (LeakyReLU)     (None, 1048576, 64)       0         
                                                                 
 conv1d_1 (Conv1D)           (None, 131072, 64)        262208    
                                                                 
 leaky_re_lu_1 (LeakyReLU)   (None, 131072, 64)        0         
                                                                 
 conv1d_2 (Conv1D)           (None, 16384, 64)         262208    
                                                                 
 leaky_re_lu_2 (LeakyReLU)   (None, 16384, 64)         0         
                                                                 
 batch_normalization (Batch  (None, 16384, 64)         256       
 Normalization)                                                  
                                                                 
 conv1d_transpose (Conv1DTr  (None, 131072, 64)        262208    
 anspose)                                                        
                                                                 
 leaky_re_lu_3 (LeakyReLU)   (None, 131072, 64)        0         
                                                                 
 conv1d_transpose_1 (Conv1D  (None, 1048576, 64)       262208    
 Transpose)                                                      
                                                                 
 leaky_re_lu_4 (LeakyReLU)   (None, 1048576, 64)       0         
                                                                 
 conv1d_transpose_2 (Conv1D  (None, 8388608, 2)        8194      
 Transpose)                                                      
                                                                 
 activation (Activation)     (None, 8388608, 2)        0         
                                                                 
=================================================================
Total params: 1065538 (4.06 MB)
Trainable params: 1065410 (4.06 MB)
Non-trainable params: 128 (512.00 Byte)
_________________________________________________________________
Epoch 1/100
2024-04-30 03:41:55.240982: I tensorflow/compiler/xla/stream_executor/cuda/cuda_dnn.cc:442] Loaded cuDNN version 8600
…
